ml/model_weights.pth (torch, 7367 bytes, 5 tensors)

linear_relu_stack.0.weight f4 [30, 10]
00000000: fad5 7b3e d08e 5dbe 8d60 aabd edb3 23be
00000010: 8c32 793a 11c0 5bbc a125 913e 14a3 7dbe
00000020: bcd4 253b b598 a63e 1c74 93be d552 a1be
00000030: baaf fc3d 3adb 063d c687 9b3e cec9 de3d
00000040: 37be 71bb 3cd4 81bd a593 62be 8c47 0c3d
00000050: 673d b33c d678 7abe 2f3f 01bb b396 683e
00000060: f476 5dbd 83e9 a53d dbb8 8b3e f5c9 333e
00000070: 0433 c9bd f772 683e d66b 8dbe d68c 3e3d
00000080: fe8d 933d 9024 1e3e 91de 843e 3b0a 1cbe
00000090: a77d 8dbe b99a 85be 8421 143d 3df7 5ebe
000000a0: 0b24 f2bd 106c fc3c 07c3 2fbd dda4 533e
000000b0: 5237 6e3e 1ec1 803e cd6b 623e 9b89 933e
000000c0: 5d53 37be 2fc9 323e d171 44bd aeae 783e
000000d0: daff 3bbe ef80 8abe 951b 893d 8ea2 29bd
000000e0: 24fb 91be b156 9f3e 65d3 8cbd 8389 c83d
000000f0: 7435 cfbd 561a 213e a277 e5bc 60aa 873e
00000100: 4dfd 223e d427 53be a830 223e 8c06 bdbd
00000110: 875f 963d c090 14bd 9235 91be 49b0 85be
00000120: 8e79 76bd f247 4ebe a4f9 adbd d70c 433e
00000130: 7846 67be ad55 d3bc 9b52 933c 8163 9b3e
00000140: 2ea0 783c 24bc 6dbd a474 993e 0ddb f9bc
00000150: d61f 47be 9594 78be 81a1 cbbd 9c10 e83d
00000160: 443f d6bd 9942 293e 81c2 14be 8bd8 833e
00000170: 8cc7 7e3e be8d d53c 3e53 2f3d cbfa 743e
00000180: b064 673e ca83 dcbd 2f8f 993e a6ac fcbc
00000190: f453 9d3b f571 c3bd 92ed 12be 04bd 0e3d
000001a0: 4989 f43d 59a4 943e 20fa 89be fe42 7fbd
000001b0: 351d a73e d3ee 9f3e 15b3 593d 6d15 18bb
000001c0: 018d 72be 8459 e2bd 1a32 25be ab49 9a3e
000001d0: f127 89be 8568 f9bd 38f1 17be 8527 9b3e
000001e0: e645 a23e cada 933e 66cb 463e db43 fa3d
000001f0: 397c 0f3e bcc9 233e 1db8 943e 762a 963c
00000200: 742d 7abc 4c11 233e 4448 393e 79a3 9cbe
00000210: 3b53 c1bc c0f5 4c3d 5d08 a13e a16f 743e
00000220: 1536 00be 2ec5 73be 8179 2ebe e060 9cbe
00000230: 6c8d 28be 1cef c83d fcb3 1ebe e124 fbbd
00000240: e98f 4e3d 3a10 1a3c 9e3c afbc 1208 b63d
00000250: c3c7 e63d 2899 373e f8d9 62be 73f2 64bd
00000260: e712 893d 1d1a 55bd 962f 103e 95c2 953e
00000270: cd42 21bd 98f0 a9bd f5b1 2dbe d7b1 843e
00000280: af7e 0e3e c445 75be da00 86bd 05ee 42be
00000290: 0b86 613e dd94 02be 1c34 6fbe 4c11 75be
000002a0: 14b1 51be 3565 9d3d 7095 64bd b0e5 633d
000002b0: 8acc 07be e818 d13d 48bd 0f3e f0d1 b6bc
000002c0: 9426 b33d 2045 c3bd f06e 24bd b4b2 d13d
000002d0: 8c73 10be 54c5 37be f0cf f93d 801d 053e
000002e0: bb15 993e 8690 f03d 6587 9e3e 4d9e a33e
000002f0: ef5c 51bc 392a 563c b1d3 fdbc 6ea5 423d
00000300: 6377 3abe 02ce 9b3e 6f66 8f3e 3b7d 933e
00000310: 9c48 923e f54a 07bd 4da9 963e 90f2 2b3d
00000320: 4a8b 65be 3fbd fd3d d906 763e e40a 7d3c
00000330: efe6 f53d 3232 7f3e 451e 873e 87d6 d23d
00000340: e962 eb3b 73db 663e fe02 06bc 5f0b 653d
00000350: 26f0 d1bd 6721 74bd 0c80 1d3e da9d 05bb
00000360: a062 67be 9b2d 143d 2966 95be 7373 6dbe
00000370: aab6 e83d 60c4 da3d 973f 873e ca70 883e
00000380: 70b2 773e 3d0f 98be bbff 503d 2d45 58bd
00000390: e777 96be 08fe 053d 29d1 3dbe 0038 32bd
000003a0: e021 6b3d 41a9 8bbe 5a3d ccbd 40e7 e1bc
000003b0: 5891 d53d b8b8 67be 7885 3cbd 239d 19be
000003c0: 09ce 073e e069 9abe ccbd 313e 81b0 3e3d
000003d0: 2e0b 68be aac0 a43c b004 21be f630 873e
000003e0: 707e 94be a711 92be c4bd 66be e676 8abd
000003f0: 9ef3 563e 007f 09bd 7f28 9e3e 5e6f 283e
0.24593344 -0.2163651 -0.08319197 -0.15986605 0.0009506128 -0.013412491 0.2834902 -0.2476924
0.0025303802 0.3253838 -0.28799522 -0.31508508 0.12338205 0.032923914 0.30377024 0.10878335
-0.0036887059 -0.063393086 -0.22126634 0.03424792 0.021879865 -0.24460158 -0.0019721498 0.22713737
-0.05406852 0.081011795 0.2728947 0.17557509 -0.098241836 0.22700106 -0.27621335 0.04652103
0.07204817 0.15443635 0.25951055 -0.15238278 -0.27634928 -0.26094607 0.036164775 -0.21774001
-0.11823281 0.030813247 -0.042910602 0.20668359 0.2326329 0.25147337 0.22111435 0.28815922
-0.17902894 0.17459558 -0.047960106 0.24285385 -0.18359318 -0.27051494 0.06694714 -0.04141479
-0.28511918 0.31120828 -0.06876258 0.09791853 -0.10117617 0.15732703 -0.028011147 0.26497173
0.15916939 -0.20620662 0.15838873 -0.09229764 0.07342439 -0.036270857 -0.28361183 -0.26111057
-0.060174517 -0.20144632 -0.08494881 0.19047867 -0.22585475 -0.02579769 0.017983725 0.30349353
0.015174909 -0.058040753 0.29971802 -0.03049996 -0.19445738 -0.2427543 -0.09942914 0.11331293
-0.10461286 0.16529311 -0.14527322 0.25751147 0.24880809 0.026068565 0.042803995 0.23923795
0.22597003 -0.10767324 0.29992053 -0.030844044 0.0048012678 -0.0954322 -0.14348438 0.034848228
0.119402476 0.29031637 -0.26948643 -0.062319748 0.3263947 0.31236896 0.0531493 -0.002320613
-0.23686601 -0.1105223 -0.16132393 0.3013433 -0.26788285 -0.12178139 -0.14838111 0.30303589
0.31693953 0.2887786 0.19413528 0.12219974 0.14012231 0.15994924 0.29046717 0.018330794
-0.015269626 0.15924567 0.18093973 -0.3059347 -0.023599258 0.050039053 0.31451693 0.23870708
-0.1252063 -0.23805687 -0.17038538 -0.3054266 -0.16460198 0.098112315 -0.15498346 -0.122628935
0.050430212 0.009403283 -0.02139121 0.08888258 0.1126857 0.17929518 -0.22153461 -0.05589528
0.066930585 -0.052026857 0.14080653 0.29250017 -0.039370347 -0.08297843 -0.16962416 0.2591693
0.13915513 -0.23952395 -0.06543131 -0.1903611 0.2202379 -0.127521 -0.23359722 -0.2393238
-0.20477706 0.07685319 -0.055806577 0.05563897 -0.13261619 0.102098286 0.14037049 -0.022316903
0.087475926 -0.09534669 -0.04014486 0.10239163 -0.14106578 -0.17946368 0.12197864 0.12999535
0.29899392 0.11746316 0.30962673 0.3195671 -0.012778505 0.01307159 -0.030984731 0.047521047
-0.18209605 0.3043061 0.28007838 0.2880648 0.28571022 -0.03303047 0.2942604 0.041979373
-0.22416416 0.123896115 0.2402605 0.015444491 0.12006938 0.24921492 0.2639028 0.10294824
0.007183422 0.2254465 -0.008179424 0.055919047 -0.10250883 -0.059602167 0.15380877 -0.0020388276
-0.22596216 0.036176305 -0.29179505 -0.23188572 0.113629654 0.10681987 0.26415703 0.2664855
0.24189162 -0.29699126 0.051025134 -0.052800346 -0.29388353 0.032712966 -0.1853682 -0.043510437
0.057405353 -0.27277568 -0.099726394 -0.027576089 0.10428113 -0.22629058 -0.046025723 -0.15001349
0.1326219 -0.301589 0.17357558 0.046555046 -0.22660515 0.0201114 -0.15724444 0.26404542
-0.29002714 -0.28529093 -0.22533327 -0.06760959 0.2099137 -0.033568382 0.3089027 0.16448733

linear_relu_stack.0.bias f4 [30]
00000000: 9efc 083e 78c3 fd3c 9e5f 883e 8266 873e
00000010: d625 c7bd b8dc 453d 0d45 86bc ef33 ee3d
00000020: 30af 3fbc 9a9f 933e 0c9a 913e 1e21 4d3e
00000030: 78fd 153e 621b 723d bb9f c5bd 37e6 c73d
00000040: d083 4b3e 080d 8fbe c4d4 4abe d68c 833d
00000050: fb0f 92bd 0557 283e c1a6 7a3e a0c9 a23d
00000060: c377 ad3d 4586 86be 2613 4abe f402 3cbe
00000070: 29c0 343e 7e6a 14bc
0.13377616 0.030976996 0.2663545 0.26445395 -0.097240135 0.048306197 -0.016390348 0.11630999
-0.011699483 0.28832704 0.2843784 0.20032164 0.14647472 0.059108146 -0.09649607 0.09760707
0.19874501 -0.2793963 -0.19807726 0.06423347 -0.07131954 0.16439445 0.24477674 0.07948613
0.08470108 -0.26274315 -0.19733867 -0.18360502 0.17651428 -0.009058593

linear_relu_stack.2.weight f4 [30, 30]
00000000: 366a e0bc 8449 2e3e ad63 fd3c 269c ed3d
00000010: b1c1 813d d844 f8bd e590 34bd 29a7 fdbd
00000020: 10c6 30be be46 bf3c 730e 893c 1870 2f3e
00000030: 1f12 61bd a7e6 083e 34cd e1bc 32fc 873d
00000040: c1ce 413d 6040 31be 41ea b23c 180b 983d
00000050: 3491 533e ce84 21be caa7 fb3c 3c23 36bd
00000060: 79a5 0ebe e404 aa3d f0ce f23d 37ce f43d
00000070: 9fc4 943d 5926 1e3e 9fef 92bc d0dd 4ebd
00000080: 311e d43d affb 8e3d 0aef 74bc 66b3 07be
00000090: 4e62 14be d7ff 323e 749f 13be dfc8 293e
000000a0: bccb a9bd 8b64 263e 6a3a 133d e055 093e
000000b0: fbc3 1c3e 0bd0 153e 0274 3a3e 00a3 fabc
000000c0: 89ce 8a3d e4ed 26be fc6d 3c3d 249e ee3d
000000d0: c52c c2bd 60d1 b93b 45c3 0cbe a460 eb3d
000000e0: 2c99 773d 69ec ff3c e0f5 18be c3d3 1f3e
000000f0: d6ee babd e04c 7a3d 659e 373e 022d 083e
00000100: 1157 1bbe de22 04be a58e 41bc b16c c33d
00000110: cb36 26be bcb1 97bd 537c 003e 8449 f13d
00000120: 5bf9 e23b 9c11 b63d 97d6 3abe 8739 31be
00000130: d1ea 90bd 71b0 cbbd 85b6 aa3d a8bf 2fbe
00000140: 27ee 193e 50e1 30be 1c06 173e d957 30be
00000150: e328 d8bc 78cb 743d 67b6 37be 174d 3a3e
00000160: cb23 d8bd 15cf 62bd f1e1 89bd fda3 ab3d
00000170: 5203 15be 67ce 2e3e 27a6 1f3e 8077 c23c
00000180: dce2 cd3d 4341 e63d 071f 35be 92da 1ebd
00000190: 26a4 eb3d b5fd 2fbe 269c 903d 09ea 973d
000001a0: 67cd ed3d 6934 1cbc 402f f7bd 55e7 32be
000001b0: 46f5 e53b 563e c7bd 99cd 05be 1a11 1dbe
000001c0: 0149 0e3d f896 98bd db84 013e d071 703d
000001d0: 30d4 47bc f341 04bd 5c89 a83d 3e89 a13d
000001e0: 2cc4 eb3d 0f3d 39be a8e4 a73d b093 e63d
000001f0: 54a9 723d 601b a5bc e032 da3b ee25 863d
00000200: cabf 273e 5712 0ebe f2cb 07be 7793 e6bd
00000210: 872b d5bd 2337 89bd dcf2 68bd e4a2 283d
00000220: 12bc 083e 7c8e 073e 9c56 2c3e c2e7 173e
00000230: ca9d f6bd 0c48 15bd 0812 e9bd e874 ffbd
00000240: b0ad f0bc 1e1d fabd 809f cd3c 7095 343c
00000250: 3ac6 023e 58e8 853c e24a 87bd 4165 bdbd
00000260: acd4 473d 92d3 233e fd68 2fbe 2038 f53b
00000270: d8bb 17be 3cdb efbd 5013 19be 84c8 af3d
00000280: f6ff 083e ccf2 63bd 7c35 0f3e d031 0cbc
00000290: bfd6 35be 6c0a 0dbe e4aa 253d 3d76 12be
000002a0: 02a3 313e ace4 5abd 8889 08be e083 093c
000002b0: 5b3f 80bd a426 06bd 600b 4a3c a813 313d
000002c0: 7979 02be bc39 c8bd ea59 7fbd 3228 29be
000002d0: 1c71 2a3e 451b 0cbe 010c 39be 6809 cabc
000002e0: a81f 1abd 38dd 323e be42 94bd 2baa 21be
000002f0: b03b f93d cc86 0abe aeef 0fbe 4219 f8bd
00000300: 007b e03d 80c1 a6bc ee13 6fbd 4437 c63d
00000310: b0ae 72bd 78d2 9f3d 800e df3d c36e 93bd
00000320: be74 3abe e000 323d 8787 32be 294c 38be
00000330: 65ac 9bbd d417 36bd f0c5 823c 806b 223e
00000340: 799e ddbd fe02 34be 3675 38be 5df6 5c3d
00000350: 80bc a53d 8ce4 1ebe 0d90 25be f667 813d
00000360: bec5 e03d 6833 9d3d c4eb 09be c273 38be
00000370: fc54 de3d dbdd 003e c0de 7abd fbdc 0d3c
00000380: 0f77 693d 8cb7 eebc d8f4 03be 0c45 5b3d
00000390: adcf 81ba 9d18 0f3e aa1c dd3d c120 893d
000003a0: 28d6 de3d 603c f33c 223c 913d 9494 48bd
000003b0: d4ee 85bd 2e1d 01bd 070b 19be 5c3e 033e
000003c0: 7800 fdbc 7d3e 17be 389c 48be b15a 803d
000003d0: 376c 233e 6e6e 0c3e faf9 243e 65d6 31be
000003e0: 768f e0bc 1272 363d 41da 0fbe da3c 02be
000003f0: 2c4e 8d3d 693a 453d 8ff1 fa3d 3389 d3bd
-0.027394395 0.17020231 0.030931318 0.116020486 0.06335772 -0.12122506 -0.044083495 -0.12385399
-0.17263055 0.023349162 0.016730523 0.17132604 -0.054948922 0.13369237 -0.027563669 0.06639899
0.047316317 -0.17309713 0.021840217 0.07423991 0.2066086 -0.15773317 0.030719656 -0.044467196
-0.1393031 0.08301714 0.118558764 0.11953395 0.07264065 0.15444316 -0.017936526 -0.050504506
0.10357321 0.069815986 -0.0149495695 -0.13252029 -0.14490625 0.17480408 -0.14416295 0.16580532
-0.082908124 0.16249292 0.03594438 0.13411665 0.15309136 0.14630143 0.18208316 -0.030595303
0.06777675 -0.16301686 0.046003327 0.11651257 -0.09481195 0.0056707114 -0.13746364 0.11493042
0.06044881 0.031240659 -0.14937544 0.15608124 -0.091275856 0.06110847 0.17931516 0.13298419
-0.15169932 -0.12903926 -0.011813794 0.095422156 -0.1623184 -0.07406947 0.12547426 0.117816
0.006926698 0.088900775 -0.18245922 -0.17307101 -0.07076038 -0.09945763 0.08335594 -0.17162955
0.15032254 -0.1727345 0.14748424 -0.17221011 -0.026386684 0.059764355 -0.17940675 0.1819347
-0.10553702 -0.05537327 -0.06732548 0.08380888 -0.14552048 0.17070924 0.15590726 0.023738623
0.100530356 0.112429164 -0.17687617 -0.038782664 0.11505918 -0.17186625 0.07061033 0.074176855
0.11611443 -0.00953398 -0.12069559 -0.17471059 0.0070177643 -0.097286865 -0.1306671 -0.15338555
0.03473759 -0.0745067 0.12648337 0.05870229 -0.012196586 -0.032289457 0.08229324 0.07887505
0.11512026 -0.18089698 0.081979096 0.11258638 0.059243515 -0.020154655 0.006658897 0.06550203
0.16381755 -0.13874184 -0.13261393 -0.112585954 -0.10408693 -0.066999696 -0.056872234 0.04117097
0.13352993 0.13237947 0.16829914 0.14834502 -0.120418146 -0.036445662 -0.11380392 -0.1247347
-0.029379696 -0.12212585 0.02510047 0.011021957 0.1277093 0.016346142 -0.0660608 -0.09247828
0.048786804 0.15998676 -0.17129894 0.0074834973 -0.1481775 -0.117117375 -0.14948773 0.08583167
0.13378891 -0.05565147 0.13985246 -0.008556798 -0.177577 -0.13773507 0.040446177 -0.14302917
0.17347339 -0.053440735 -0.13333714 0.008393258 -0.06262084 -0.032751694 0.012331814 0.043231636
-0.1274165 -0.09776637 -0.062341608 -0.1651924 0.1664471 -0.13682278 -0.18070985 -0.024662688
-0.037627846 0.17467201 -0.072392926 -0.1578757 0.121695876 -0.13527983 -0.14056274 -0.121141925
0.109609604 -0.02035594 -0.058368616 0.0967851 -0.059248626 0.078038156 0.108914375 -0.071988605
-0.18208596 0.043457866 -0.17434512 -0.17997803 -0.07601241 -0.044456318 0.015963525 0.1586132
-0.10821242 -0.17579266 -0.18013462 0.053945888 0.08092594 -0.15516871 -0.16168232 0.06318657
0.10975216 0.076758206 -0.13468844 -0.18012908 0.10856053 0.12584631 -0.061247587 0.008658643
0.05699831 -0.029140256 -0.12886369 0.053532645 -0.0009903811 0.13974233 0.10796483 0.066957004
0.10880691 0.029691875 0.070915475 -0.04896982 -0.065396935 -0.03152197 -0.14945613 0.12816757
-0.030884013 -0.14769931 -0.19590843 0.06267298 0.1595925 0.13714 0.16110983 -0.17366941
-0.027412158 0.04454238 -0.14048101 -0.12718526 0.06899676 0.048151407 0.12253105 -0.10328903

linear_relu_stack.2.bias f4 [30]
00000000: 77d6 3d3e d24c b5bc 34fe 973d 47de 173d
00000010: 4876 0cbe e6eb debd 0240 99bd b629 143e
00000020: 8da5 233e 0f79 b7bd 420c 9e3d d9b4 f73d
00000030: d426 943c 8a0b 193e de90 16be 330f ef3d
00000040: f192 903c ed1c e63d 90b0 0abc 1dc6 d63d
00000050: 076e eabd 198e e93c 99ed a13d 130e 0dbe
00000060: e465 98bd b470 51bd 2466 d1bd 56c7 163b
00000070: abe7 a0bd 906c 36bd
0.18538843 -0.022131357 0.07421532 0.037077215 -0.13716996 -0.10884838 -0.07482912 0.14469036
0.15981121 -0.08958637 0.07717182 0.12095041 0.018084921 0.14945808 -0.147037 0.11672821
0.017648192 0.11235986 -0.008464947 0.10487006 -0.11446767 0.02851014 0.07906646 -0.137749
-0.07441309 -0.051132873 -0.1022456 0.0023006997 -0.07856687 -0.044537127

linear_relu_stack.4.weight f4 [1, 30]
00000000: 9ce7 043e 599a 1dbe ba30 84bd 1052 103d
00000010: f201 0b3e f8fa 603d 14d1 24bd 08a5 2cbe
00000020: 8acd 0ebe c97a c43d e1da 303e 1d0b 3bbd
00000030: f8f6 283e 4239 b13c f410 0ebe 543b 323e
00000040: ac64 333c 5e8a 9a3e b81b fbbc ac03 de3d
00000050: 700a bdbd 5402 4ebd 8b95 283e 70f2 453c
00000060: 90cb 3c3d c8c2 9e3d d450 8c3d ef51 6bbd
00000070: 902a 253e e809 fd3c
0.12978977 -0.1539091 -0.06454606 0.03523451 0.13574961 0.054926842 -0.040238455 -0.1685983
-0.13945594 0.09593732 0.17270996 -0.045664895 0.16500461 0.021633748 -0.13873655 0.17405444
0.010949295 0.3018369 -0.030652866 0.10840544 -0.092305064 -0.05029519 0.16463296 0.012081727
0.04609257 0.07751995 0.06851354 -0.057451185 0.16129518 0.030888513
