ml/model_weights.pth (torch, 7047 bytes, 5 tensors)

linear_relu_stack.0.weight f4 [30, 7]
0	0x3e81a12f	0.25318286
1	0xbea127cd	-0.31475678
2	0x3e037d2c	0.12840718
3	0xbe2790a1	-0.16363765
4	0x3ddd15e0	0.10795188
5	0xbebc06f3	-0.36724052
6	0xbde79037	-0.11306804
7	0x3e4c6037	0.19958578
8	0xbe838374	-0.25686228
9	0xbc4c9715	-0.012487193
10	0xbebbeaf4	-0.36702693
11	0xbb80e4b4	-0.0039335135
12	0x3e6919ed	0.22763796
13	0xbe87f086	-0.26550692
14	0xbdbb1709	-0.09135253
15	0x3d52af4a	0.0514367
16	0x3b691a8c	0.0035568802
17	0x3ddfdbb3	0.10930576
18	0x3e6d1f44	0.23156458
19	0xb9428990	-0.00018552528
20	0x3eb0af31	0.3450866
21	0x3e08bfd1	0.13354422
22	0x3df7df6c	0.12103161
23	0xbdcf5b5e	-0.10124849
24	0xbe28243b	-0.16420071
25	0x3e4d5dd3	0.20055322
26	0xbcf3afd8	-0.029746935
27	0xbe988e00	-0.29795837
28	0xbd342958	-0.04398474
29	0x3d997cf9	0.0749454
30	0x3e1e0975	0.15433295
31	0xbeb89343	-0.36049852
32	0xbe8617e1	-0.26190093
33	0x3e0c9a7d	0.13730808
34	0x3dd18897	0.102311306
35	0xbe138fb2	-0.14410284
36	0x3e099962	0.13437417
37	0x3e61522f	0.22004007
38	0x3e2e4cce	0.17021486
39	0x3d1b76c2	0.037955053
40	0xbeab42c0	-0.33449364
41	0x3e526346	0.20545682
42	0xbeb0d741	-0.34539226
43	0x3eaeac7b	0.34115967
44	0x3e242768	0.16030657
45	0x3c8f94d0	0.017527014
46	0xbe9cf427	-0.30655023
47	0x3e6160ad	0.22009535
48	0xbe3e64b6	-0.18593106
49	0x3e036d34	0.12834626
50	0x3e9107c2	0.2832623
51	0xbebb5a16	-0.36592168
52	0xbe346191	-0.17615344
53	0x3cd64609	0.026156442
54	0xbebecb13	-0.37264308
55	0xbe226be8	-0.15861475
56	0xbe80a4a5	-0.25125614
57	0x3d8436e1	0.0645578
58	0x3e38613d	0.18005843
59	0xbdb23736	-0.08701937
60	0xbea341b5	-0.31886068
61	0x3d05e2b3	0.0326869
62	0xbda9bc89	-0.08287913
63	0xbdfbd50a	-0.12296493
64	0xbc16ad45	-0.009196584
65	0xbe971a6a	-0.2951234
66	0x3eae266c	0.3401369
67	0x3e873f29	0.26415375
68	0xbe956cd6	-0.29184598
69	0xbea97ece	-0.33104557
70	0x3dc4a18c	0.09601125
71	0xbe69a61e	-0.22817275
72	0x3e0fe109	0.14050688
73	0xbe09791c	-0.13425106
74	0x3e97ff48	0.29686952
75	0xbdcaffa2	-0.09912039
76	0xbeb8394c	-0.35981214
77	0x3eaeff89	0.34179333
78	0xbe859411	-0.26089528
79	0xbe5275b0	-0.20552707
80	0x3eab9b2f	0.33516833
81	0x3e93ff10	0.28905535
82	0xbde178bc	-0.110093564
83	0x3c8cc15f	0.01718205
84	0x3ec130e6	0.3773262
85	0x3e96fb58	0.29488635
86	0x3e44d432	0.19221571
87	0xbd9867d3	-0.07441678
88	0xbe9e9934	-0.3097626
89	0x3e9db8ac	0.30804956
90	0x3ecd1835	0.4005753
91	0xbe1bac47	-0.15202437
92	0x3eb56b81	0.3543358
93	0x3e02ef6d	0.12786646
94	0xbe59dbc2	-0.21275237
95	0xbe83f10a	-0.25769836
96	0x3e830eab	0.25597128
97	0xbe3ce33c	-0.18446058
98	0xbda79480	-0.08182621
99	0xbd409170	-0.0470137
100	0xbe88b489	-0.26700237
101	0x3dfaeaf7	0.12251847
102	0x3dde8423	0.10865047
103	0x3eaf34e7	0.3422005
104	0x3ec2b5ed	0.38029423
105	0x3e719dc2	0.23595336
106	0x3e49c1ce	0.19702837
107	0x3e8d019f	0.275403
108	0xbdc18a4e	-0.09450208
109	0xbe260f7e	-0.16216847
110	0xbe4955aa	-0.19661584
111	0xbe8bb056	-0.2728297
112	0x3ebc9264	0.36830437
113	0xbe3f63cc	-0.18690413
114	0x3aaab69f	0.0013024396
115	0x3df05296	0.11734502
116	0xbe514bf7	-0.20439135
117	0x3d983a0f	0.07432949
118	0xbeadba14	-0.3393103
119	0xbdd4d2f7	-0.10391801
120	0x3e865963	0.26240072
121	0x3d1c1a88	0.03811124
122	0xbe153cdf	-0.14574002
123	0xbdb06831	-0.08613623
124	0x3d9edea9	0.07757313
125	0xbdba74b0	-0.091042876
126	0x3e9fcbad	0.3121008
127	0xbe1f81c0	-0.1557684
128	0x3eaf4655	0.34233347
129	0xbe9766d7	-0.29570648
130	0x3e6ca166	0.23108444
131	0xbe7877ff	-0.24264525
132	0x3e5408e0	0.2070651
133	0x3e9d5f33	0.30736694
134	0xbe9b4f67	-0.30334017
135	0xbe26138c	-0.16218394
136	0xbe4c8fee	-0.1997678
137	0x3d71fbf6	0.05907818
138	0xbe8f9684	-0.28044522
139	0xbe180781	-0.14846613
140	0x3df15507	0.11783796
141	0xbe856698	-0.26054835
142	0xbc707e16	-0.014678499
143	0x3dc7ca3b	0.09755369
144	0xbe7f97fe	-0.24960324
145	0xbda113a1	-0.07865072
146	0xbe9707cd	-0.2949814
147	0xbd8af2c8	-0.06784588
148	0xbcec6be1	-0.028860034
149	0xbe8e575f	-0.27801034
150	0xbe28b33b	-0.16474621
151	0xbe9ae6cd	-0.30254212
152	0x3e4f7ece	0.20263216
153	0xbe99c163	-0.30030355
154	0xbce9c893	-0.028538024
155	0xbe9f4add	-0.31111804
156	0xbdcc79d5	-0.09984175
157	0x3e01fbd5	0.12693723
158	0xbc3dc526	-0.011582648
159	0xbdbdd88f	-0.09269821
160	0x3d6f740d	0.058460284
161	0x3d722fc5	0.059127588
162	0xbe4c2c2c	-0.19938725
163	0x3ebd9a0c	0.3703159
164	0xbe5932c9	-0.21210779
165	0xbdedbf52	-0.11608757
166	0x3e786760	0.24258184
167	0xbe801455	-0.25015512
168	0x3e0607ce	0.13088915
169	0xbeb6c0c0	-0.35693932
170	0xbe7895c1	-0.24275877
171	0x3ec2361a	0.379319
172	0xbeb7add9	-0.35874823
173	0x3e9ae320	0.30251408
174	0x3e25e224	0.16199547
175	0xbd06dafb	-0.03292368
176	0xbe351a75	-0.17685874
177	0xbd40e544	-0.047093645
178	0xbda6fd59	-0.08153791
179	0xbe4f8056	-0.202638
180	0xbe125d87	-0.1429349
181	0xbdcbf52a	-0.09958871
182	0x3e7227a7	0.23647939
183	0xbe11a65d	-0.14223619
184	0xbe83fddf	-0.25779626
185	0xbda36a51	-0.079792626
186	0xbd8ccbe4	-0.068748266
187	0xbc57c877	-0.013170353
188	0x3dda3f50	0.10656607
189	0x3ec7d01f	0.3902597
190	0x3e2cc8a2	0.1687341
191	0x3e575753	0.21029405
192	0x3e63b57c	0.222372
193	0x3e247676	0.16060814
194	0xbe5373f5	-0.20649703
195	0x3e1cf2c8	0.15326989
196	0x3e5cd1bd	0.21564384
197	0x3e81d04e	0.25354236
198	0xbe71c3df	-0.23609875
199	0x3e2bc8e1	0.16775848
200	0x3c8e2af9	0.017354475
201	0x3ebe52de	0.37172598
202	0xbe26f2e6	-0.16303596
203	0x3e428411	0.18995692
204	0x3e0a5f2b	0.13512866
205	0xbeba03e4	-0.36331093
206	0xbeb15971	-0.3463855
207	0xbeb4820d	-0.3525547
208	0x3eb385ca	0.3506301
209	0x3d2d5ff2	0.04232783

linear_relu_stack.0.bias f4 [30]
0	0xbe5cb137	-0.21551977
1	0xbe58767a	-0.21138945
2	0x3ebf17a2	0.37322718
3	0x3d82a1c7	0.06378513
4	0xbd991201	-0.07474137
5	0x3b4f3874	0.0031619342
6	0xbe867ce6	-0.26267165
7	0xbc282a82	-0.010264041
8	0xbe42e536	-0.1903275
9	0xbd1aaaa3	-0.037760388
10	0xbe765130	-0.24054408
11	0xbea36a2d	-0.31916943
12	0x3e18ccd7	0.1492189
13	0x3ec0ca31	0.3765426
14	0xbeb52491	-0.3537946
15	0xbe394961	-0.18094398
16	0x3ea98bc5	0.33114448
17	0xbd67f49b	-0.05662976
18	0x3ea019b4	0.3126961
19	0x3da2a513	0.07941642
20	0x3ea3eea1	0.32017997
21	0xbe8eb9b3	-0.27876052
22	0x3dba9bd9	0.09111757
23	0xb8a3c8ee	-7.809872e-05
24	0x3dac9a73	0.08427896
25	0xbe8261f7	-0.25465366
26	0xbdee634f	-0.11640035
27	0xbe47bd78	-0.1950587
28	0xbeb20ebf	-0.34776875
29	0x3e861974	0.26191294

linear_relu_stack.2.weight f4 [30, 30]
0	0xbe22b1b7	-0.15888105
1	0x3e19bcc0	0.15013409
2	0x3de3ad34	0.1111702
3	0xbe0e5f94	-0.13903648
4	0xbe21ca4b	-0.15799825
5	0xbe0ecbfa	-0.13944998
6	0x3e1194ec	0.14216965
7	0xbe036154	-0.12830096
8	0xbd79de3b	-0.06100295
9	0xbcc4bd5c	-0.024016075
10	0xbd0ea0b4	-0.034821227
11	0xbddc5fb4	-0.107604414
12	0xbdbe6d78	-0.09298223
13	0xbce8424a	-0.028351922
14	0xbda96139	-0.08270497
15	0x3cb1e98e	0.021717813
16	0x3cf8f604	0.030390747
17	0xbd9396f1	-0.07206524
18	0x3d5b89ed	0.053598333
19	0xbd7e971c	-0.062155828
20	0xbd8575ca	-0.06516607
21	0xbde556fb	-0.11198231
22	0x3df5c027	0.11999541
23	0x3cbd384b	0.023098132
24	0xbe25b17d	-0.16180988
25	0x3dd37ab7	0.103261404
26	0xbdf7b66e	-0.120953426
27	0x3e164447	0.14674483
28	0x3e2455d8	0.16048372
29	0xbcbc4749	-0.02298321
30	0x3e200177	0.15625559
31	0x3ccf83a2	0.025331322
32	0x3e384ca4	0.17997986
33	0xbe2c7003	-0.16839604
34	0xbc112239	-0.008858257
35	0xbdfe04e6	-0.12403278
36	0x3d7ebc50	0.062191308
37	0x3e2842d5	0.16431744
38	0x3e04f93b	0.12985699
39	0x3d028fbc	0.031875357
40	0xbe0c90f2	-0.13727167
41	0x3df82a4c	0.121174425
42	0x3ddb3fac	0.10705504
43	0xbdd0e7a2	-0.102004305
44	0x3e413e17	0.18871342
45	0x3cc0a031	0.023513885
46	0xbdc4a07d	-0.09600923
47	0xbd4d578c	-0.05013232
48	0xbcc31c73	-0.023817277
49	0xbcff3af7	-0.031156046
50	0xbe04178e	-0.1289961
51	0xbdc9fd20	-0.09862733
52	0xbc608745	-0.013704126
53	0xbd06e7a0	-0.03293574
54	0xbdac7fff	-0.08422851
55	0x3df3c3fc	0.119026154
56	0xbd1f587a	-0.038902737
57	0x3e466649	0.19374956
58	0x3e5332b8	0.20624816
59	0x3d941f64	0.0723255
60	0xbe004919	-0.12527885
61	0x3d39ae51	0.045332257
62	0x3e197606	0.14986429
63	0xbda0c441	-0.078499325
64	0xbd7f5410	-0.062336028
65	0xbe1c2401	-0.1524811
66	0xbd4e7293	-0.050402235
67	0x3cdd6e61	0.027030172
68	0xbdb0d33a	-0.08634038
69	0x3dfc59aa	0.123217896
70	0xbde67501	-0.112527855
71	0x3cf2330c	0.029565357
72	0x3e50c8b7	0.20389067
73	0xbdb4cac6	-0.088277385
74	0xbe0fb853	-0.14035158
75	0x3db1c0af	0.086793296
76	0xbe26c0f8	-0.16284549
77	0xbc512761	-0.012765736
78	0xbd9f14a2	-0.07767607
79	0xbe032bf0	-0.1280973
80	0x3df74452	0.12073578
81	0xbe09c213	-0.1345294
82	0x3e2f5a52	0.17124298
83	0xbd97afc6	-0.07406573
84	0x3dfcec77	0.123497896
85	0x3e21b386	0.15791139
86	0x3c47ff36	0.012206843
87	0x3db86e0c	0.09005365
88	0x3de92af2	0.11385144
89	0xbe018bcb	-0.12650983
90	0x3dd0bc36	0.101921484
91	0xbd88ed47	-0.06685882
92	0x3d934ada	0.07192011
93	0x3db5ab91	0.08870614
94	0xbe031773	-0.12801914
95	0xbc48b106	-0.012249237
96	0xbd31b167	-0.043382075
97	0x3c8505ff	0.01623821
98	0x3dd32e88	0.103116095
99	0x3db60c13	0.08889022
100	0xbe0f8370	-0.14014983
101	0x3e1a2074	0.15051442
102	0x3d21aa8a	0.03946928
103	0x3dadaf85	0.08480743
104	0x3b6314ac	0.0034649773
105	0xbd8a482e	-0.067520484
106	0xbe0ddaed	-0.13853045
107	0x3e1e39ee	0.15451786
108	0xbde4b6b3	-0.111676596
109	0xbdf53a4c	-0.1197401
110	0xbde2bac1	-0.11070777
111	0x3d760149	0.06005982
112	0x3dd842cd	0.10559616
113	0xbe34b0ba	-0.17645541
114	0x3e21abdd	0.15788217
115	0x3b8d7c7c	0.004317818
116	0xbce50f30	-0.027961344
117	0xbd38f65c	-0.04515682
118	0xbdf788fc	-0.120866746
119	0xbe0e444c	-0.1389324
120	0x3dbd2353	0.09235253
121	0x3d253ad4	0.040339306
122	0xbe00ae89	-0.1256658
123	0xbe062fdb	-0.13104193
124	0x3d8f8c25	0.07009152
125	0x3db0ae1d	0.086269595
126	0x3b1e895a	0.0024190755
127	0x3d86b825	0.065780915
128	0x3cdd2e4c	0.026999615
129	0xbe29bfba	-0.16577044
130	0xbcdcbb1b	-0.026944688
131	0x3d8722f7	0.06598466
132	0xbe083961	-0.13303138
133	0xbe369548	-0.17830384
134	0x3dfeca09	0.12440879
135	0xbc9a74b7	-0.018854482
136	0x3e364ecb	0.17803495
137	0xbe2c277e	-0.1681194
138	0xbddbce00	-0.10732651
139	0x3c8ac6b0	0.016940445
140	0x3c4b0594	0.012391467
141	0x3e3aa0de	0.18225428
142	0x3e02573a	0.12728587
143	0x3e1e9a93	0.15488653
144	0x3bbc5e1b	0.005748523
145	0x3e02ebad	0.12785216
146	0xbdc6c5dd	-0.09705708
147	0x3dff8a77	0.12477582
148	0x3e21ab36	0.15787968
149	0xbce7df65	-0.028304765
150	0x3e21045a	0.15724316
151	0x3df32123	0.11871555
152	0xbdefd230	-0.11710012
153	0xbe3770d8	-0.1791414
154	0xbe387094	-0.18011695
155	0x3cded60a	0.027201671
156	0x3d5e0ed4	0.05421336
157	0x3e221d9d	0.15831609
158	0x3c166b57	0.009180865
159	0xbdb3a96e	-0.087725505
160	0xbdf3b02d	-0.11898837
161	0x3d3f2d9b	0.046674352
162	0x3dabd957	0.08391064
163	0xbd6ab6d6	-0.057303272
164	0x3cae3ea3	0.021270102
165	0xbc97e1f1	-0.018540354
166	0x3c288dce	0.010287715
167	0xbe3ae428	-0.18251097
168	0x3df22237	0.11822932
169	0xbce132c8	-0.027490035
170	0x3a78b4cf	0.0009487392
171	0xbdc3cbf4	-0.09560385
172	0xbe06db76	-0.13169655
173	0x3ddf2224	0.10895184
174	0x3cf028cc	0.029316328
175	0x3de8b467	0.11362534
176	0x3dcd1ced	0.10015283
177	0x3e5a6934	0.21329194
178	0x3daed36c	0.08536419
179	0x3aad5b30	0.0013226029
180	0x3b2053ad	0.0024463937
181	0x3df0d969	0.11760218
182	0x3da477d6	0.080306694
183	0xbd8dfab6	-0.06932585
184	0x3e1b3f6f	0.15160917
185	0xbda06d54	-0.07833353
186	0xbca3a071	-0.019973965
187	0x3d7c1130	0.06153983
188	0x3e2138e1	0.15744354
189	0xbbca680e	-0.006176955
190	0x3e2f876f	0.17141508
191	0x3daf1124	0.08548191
192	0x3ca07a74	0.01958964
193	0x3e21c86e	0.15799114
194	0x3e132321	0.1436887
195	0xbe1118ae	-0.14169571
196	0xbdddcfe4	-0.108306676
197	0x3cc02089	0.023453014
198	0xbe1a28a0	-0.1505456
199	0xbd4c7dc1	-0.049924616
200	0x3c7e5684	0.015523557
201	0x3e075c6e	0.13218853
202	0xbd35cae1	-0.044382934
203	0xbe226559	-0.15858974
204	0xbd9e345c	-0.077248305
205	0x3c6a84dc	0.014313903
206	0x3d605386	0.054767154
207	0xbe2277f2	-0.15866068
208	0x3e2bb091	0.16766573
209	0x3e10e813	0.1415103
210	0xbd42712e	-0.047471218
211	0x3e0192bb	0.1265363
212	0xbe0fa810	-0.14028955
213	0x3e2cca23	0.16873984
214	0xba3603cf	-0.00069433165
215	0xbded98e3	-0.116014265
216	0xbd94beff	-0.07262992
217	0xbe207c0f	-0.15672325
218	0xbd24b5ce	-0.040212445
219	0xbe25f7af	-0.16207765
220	0x3dc183d9	0.09448976
221	0xbd896887	-0.0670939
222	0xbdc87ce7	-0.09789448
223	0xbe21f63c	-0.15816587
224	0xbdc2b340	-0.095068455
225	0x3d671f6a	0.056426443
226	0xbdb0654d	-0.086130716
227	0x3c61c111	0.013778941
228	0x3dd670c6	0.104707286
229	0xbc7c28d4	-0.015390594
230	0xbe11e318	-0.14246786
231	0x3e1311cb	0.14362256
232	0xbdc262dc	-0.09491512
233	0xbe3696a9	-0.1783091
234	0x3e337989	0.1752683
235	0x3dadbdce	0.08483468
236	0x3e13d51d	0.14436765
237	0xbdd0be33	-0.101925276
238	0x3c899c88	0.016798273
239	0x3e2f419e	0.17114875
240	0xbdf8078e	-0.12110816
241	0xbc54e7e3	-0.012994739
242	0xbdaccf14	-0.084379345
243	0xbc8e300a	-0.017356891
244	0xbcf7b79f	-0.030238925
245	0xbcab4b46	-0.020909917
246	0xbe377736	-0.17916569
247	0xbdf26cdd	-0.1183717
248	0xbddf33f7	-0.108985834
249	0xbde0cbec	-0.10976395
250	0xbd074969	-0.033028994
251	0x3dddc9d2	0.1082951
252	0xbe0990ce	-0.13434145
253	0xbda85dc3	-0.08221009
254	0x3d4273ee	0.04747384
255	0x3d7e2663	0.062048327

linear_relu_stack.2.bias f4 [30]
0	0x3aa282c4	0.001239859
1	0x3dfa9c76	0.12236874
2	0x3d08760d	0.033315707
3	0xbe365108	-0.17804348
4	0xbb6a222d	-0.0035725937
5	0x3d63275b	0.055457454
6	0x3e1fbf56	0.15600333
7	0xbd4986b6	-0.049200736
8	0xbd469098	-0.04847774
9	0xbdc310bc	-0.09524676
10	0xbe2597d9	-0.16171207
11	0xbd90ff90	-0.07079995
12	0xbd3d0bae	-0.046153717
13	0x3e388102	0.18017963
14	0x3db5ec74	0.088829905
15	0xbde843f5	-0.11341087
16	0xbdcb7ddd	-0.09936116
17	0xbc3f1609	-0.011662968
18	0x3e116488	0.14198506
19	0xbd8f0a3a	-0.069843724
20	0x3bdd955a	0.006762189
21	0xbd9f3d5c	-0.07775375
22	0x3e085f4a	0.133176
23	0x3e02eb67	0.12785111
24	0xbb8aada4	-0.0042321254
25	0xbdb83826	-0.089950845
26	0x3ca50ef2	0.020148728
27	0x3e1f1e3b	0.15538876
28	0xbcca2fa0	-0.024680912
29	0xbdf41bd2	-0.11919369

linear_relu_stack.4.weight f4 [1, 30]
0	0x3d62412e	0.05523794
1	0x3e9b7e17	0.30369636
2	0x3e12044d	0.14259453
3	0xbdca51a5	-0.09878854
4	0xbcb47977	-0.022030575
5	0x3e7ae60d	0.2450182
6	0x3d800c00	0.06252289
7	0x3db881a8	0.09009105
8	0xbda738d1	-0.08165134
9	0x3c0e21e3	0.008675071
10	0x3e20d1c3	0.15705018
11	0x3d9c7414	0.07639328
12	0xbdcc0bcc	-0.099631876
13	0xbdc86b40	-0.09786081
14	0xbdc8488c	-0.09779462
15	0x3db35cf1	0.087579615
16	0x3da06c2f	0.078331344
17	0x3d469e10	0.048490584
18	0xbda91f20	-0.0825789
19	0x3e11a3b5	0.14222606
20	0xbd81f81d	-0.06346152
21	0x3e85d6b5	0.2614037
22	0x3e9edd7c	0.31028354
23	0xbd929ab1	-0.07158411
24	0xbc9ec6ff	-0.019381998
25	0x3da0d53d	0.07853172
26	0xbcc642c6	-0.024201762
27	0x3d25d60e	0.04048734
28	0xbd4c34be	-0.049854986
29	0x3dfa86bd	0.122327305
